src/data/cnn_checkpoint.pth (torch, 41431 bytes, 5 tensors)

conv_1.weight f4 [32, 1, 3]
00000000: 5ca3 ad3e 0bfc ca3e a790 8cbe 6445 eb3e
00000010: d1d7 33be 6243 a03d df5e a1be 3ef7 a43e
00000020: 8856 043f 946d f0be bc8d fa3e f60e 043e
00000030: a672 ab3e ab76 b93b 06ea 623e d70a 11be
00000040: 821d cb3e 101d 803d dbff 89be 94b2 163e
00000050: fe31 88be ff17 b2bd 3648 69be b348 d53e
00000060: 2857 e9be b546 88be 1cf1 26be f7bc b1be
00000070: 2033 5f3d 0afb 11bf b7a6 f03e ac00 04bf
00000080: 3f9a e13e ec25 313d c40b 60be 8db5 b03e
00000090: 1b4c ac3a 2ad6 d03e 031f 213d 6273 3abe
000000a0: 3006 163e 5944 29be 6362 4b3e 6d81 f93e
000000b0: 760d a53e 22fe 94be 9bed a13e deae db3d
000000c0: 241e 963e f62b b4be 644f 12bf 3e6b 64be
000000d0: 3729 d8be ce75 fe3e 86e0 383d 0338 223e
000000e0: cad7 0c3e 68ed ebbc 2b72 f63e d06e ebbe
000000f0: f0e5 143d dbc2 c9be bc4c 363e e299 4bbe
00000100: 1dd6 323e 8192 f6bd beec e03e 7843 d4be
00000110: 184c b0be bcdc cabe deac fb3e 81bf 3c3e
00000120: f00e 093f 3707 03bf d799 12bf f444 e7be
00000130: 61d9 c6be 6476 6f3e e6ba f23d 1218 e03e
00000140: 6182 c9be 2b84 c9be 6096 983e 6ffd 75be
00000150: eec2 923e 2a2f 2abe 292e a63e a1ac e5be
00000160: 182d 95be b83e 343e 7526 5f3d ae98 35be
00000170: d5e9 af3e 21f2 e23e b2a7 d3be 2fd0 9dbe
0.33913696 0.3964542 -0.2745411 0.45951378 -0.17562796 0.07825352 -0.31517693 0.3221988
0.51694536 -0.469586 0.4893626 0.12896332 0.33485907 0.0056598983 0.22159585 -0.14164291
0.3967095 0.06255543 -0.26953015 0.1471656 -0.2660064 -0.08695983 -0.22781453 0.41657028
-0.45574307 -0.26616445 -0.16302913 -0.3471448 0.054492116 -0.5702368 0.47002193 -0.51563525
0.44062993 0.043249056 -0.21879488 0.34513512 0.001314524 0.40788394 0.039336216 -0.18208078
0.14650798 -0.16529979 0.1986175 0.48731557 0.32236832 -0.29100138 0.3162659 0.10726713
0.2931987 -0.3518979 -0.5715239 -0.22306535 -0.42218944 0.49699253 0.045135997 0.1584168
0.13754192 -0.028799728 0.48133978 -0.4598298 0.036352098 -0.39406475 0.1780271 -0.1988292
0.1746449 -0.12039662 0.4393062 -0.41457725 -0.34433055 -0.39621532 0.49155325 0.18432428
0.5353842 -0.51182884 -0.5726599 -0.45169795 -0.38837722 0.23385006 0.11852054 0.43768364
-0.39357284 -0.3935865 0.29802227 -0.24022458 0.28664345 -0.16619554 0.32457092 -0.44858268
-0.29135966 0.1760205 0.054480035 -0.17734024 0.34358087 0.44325355 -0.4133888 -0.30822894

conv_1.bias f4 [32]
00000000: 7ba6 6f3e 3c3d f6be 58a2 fcbe 1c38 68bf
00000010: a914 26bf d194 01be 0812 9cbd 6976 3dbf
00000020: 40e2 5d3c d2eb c9be 50ce 4abf 954d 22bf
00000030: 8a8e 58bf 467a c0be 45a7 a43e 287d 2ebe
00000040: a42f 363e 17b2 5bbf e9b5 44bf 8a6a cfbe
00000050: 30e5 b83d 135f 36bf 3995 e43d 3963 2abf
00000060: 409d c53e 6afd 5bbe eb41 e3be a1a9 31bf
00000070: 39c1 36bf 9c74 acbe 4c03 05bf d49f 8abb
0.23403351 -0.48093593 -0.49342608 -0.90710616 -0.64875275 -0.12654425 -0.07620627 -0.74008805
0.013542712 -0.3943773 -0.7922106 -0.6339963 -0.845925 -0.37593287 0.32158867 -0.17039931
0.17791611 -0.8581862 -0.7684007 -0.4051097 0.09028089 -0.7123882 0.111612745 -0.6655765
0.38596535 -0.21483389 -0.4438623 -0.6939946 -0.71388584 -0.33682716 -0.51958156 -0.004230479

fc_1.weight f4 [50, 192]
00000000: c0da 773d a0aa 6abc 0c56 7e3d 9c35 b83c
00000010: e650 7abd 6291 4c3d deaa a2bc fa9f e2bc
00000020: 225f 75bd 48f0 92bd 8826 a93c 3e25 81bc
00000030: a02b e63c 4297 72bd ec76 5b3d 1efd 58bd
00000040: d82b 4cbc 68f8 763c 129b 183d c4a4 6e3d
00000050: 2ca4 863d f363 6abd 90c9 943c 184b febc
00000060: 1893 01bc 9441 5dbd 5ea0 863d 4ef5 58bd
00000070: 4efc 1d3d 00c6 cf3c b81d c03c 1bd1 1fbd
00000080: 3458 863d fcea 813c 101b 183c 3d40 82bd
00000090: 882e f83c e862 31bc 4e6c 07bd 50e8 7d3d
000000a0: 10cf 833c e48c 23bd c99d 15bd 40de 61bb
000000b0: b00d 253d c412 97bc f1a9 28bd 5a74 cabc
000000c0: 7bd6 5cbd f0d7 d23c 14cf 643d 7e25 8bbd
000000d0: e44e 893c ceb4 183d 0068 563c 148b d2bc
000000e0: b049 1a3d ec57 1b3d 7c11 dd3c 7cc6 4fbc
000000f0: 628d 9cbc c0fd fc3b d0e0 50bc 222e b0bc
00000100: a2f3 3c3d 980a 7e3d 901c eabb 8c5e 84bc
00000110: 8008 8a3a 2033 8dbb fc21 8e3c 0cad a53c
00000120: eb3d 86bd 762d dabc b0ef 783d b84e e63c
00000130: e03d 6bbb 9038 32bd 04da 34bd 5565 84bd
00000140: 0eb6 c0bc 28a7 c73c ac7b 3c3d b27a 083d
00000150: fea5 82bd c6c3 31bd c09a 3abc d2f9 8e3d
00000160: 800b 2b3c f01a 99bc 5897 f43c 022e e1bc
00000170: b854 3fbd d2c1 573d 4f69 06bd d808 6dbc
00000180: a208 93bd b0d6 453d 98f5 5f3d d476 d73c
00000190: d81d 4ebd 12df 91bd 3315 70bd 746e 5c3d
000001a0: beeb 0d3d 64c0 783d 90db 1a3d 38a1 953c
000001b0: 8043 39ba e1ce 60bd c443 7dbd 003f 8abd
000001c0: 7c04 f23c bc21 11bd b8f6 6dbc 0c1f 2abd
000001d0: ac76 57bc 520e 50bd e026 41bd 101c c43c
000001e0: 5ab4 afbc 1c7d 363d 0eaa bdbc 4cd8 58bd
000001f0: ac9f 50bc ff4a 0fbd ecdf b4bc e0b4 8cbd
00000200: 2c63 253d e6cc 4dbd 5293 143d e023 063d
00000210: 4e30 533d 3ebe 62bd d498 543d 38bf 0bbd
00000220: ec60 db3c 7ecd 8a3d 08c2 26bc 804e 12ba
00000230: 261d 88bc 00d3 76bd 64dc 0d3d b1b9 92bd
00000240: b282 373d 882d 5d3d e8c6 8b3d 1c74 8bbc
00000250: 4ee1 72bd d0eb 843c a24c 233d b91b 93bd
00000260: ba31 86bc 7733 31bd 30d6 cebb fd7f 11bd
00000270: 86aa f1bc 0eaf bbbc de74 8cbd 748b 723d
00000280: 40d0 773d ec7b 39bc d8a7 06bc 8048 f1bc
00000290: 6479 85bd 16d5 8fbd 18ba db3c c54c 22bd
000002a0: 5d09 3ebd e082 b8bb e0e0 c4bc 8444 bfbc
000002b0: 20f8 173b f8cd 7abc 508f cbbc 6089 0dbd
000002c0: f291 70bd 94dd 773d e297 ecbc 5ca8 9c3c
000002d0: ea20 cdbc 402b c03b aacb 893d f030 083d
000002e0: ba15 80bd cca6 ea3c b84c 8c3d 6089 9b3c
000002f0: 062e 463d 40b7 913d 142e 35bc 486a 753c
00000300: 6674 4dbd 18ab 73bc 44eb 5a3d 328a 173d
00000310: f60d 3bbd 360a 6dbd 2c01 4abd b7dc 91bd
00000320: 5c19 64bd 3234 92bc f67e 473d 40ea 453c
00000330: 67d6 60bd db23 6dbd 2c0e 133d c8e1 5bbd
00000340: 6896 11bc 7ecd 0d3d 0dcf 08bd 20ee 00bc
00000350: 60d8 cdbb a2de 8bbc 62e1 15bd 8ec1 83bd
00000360: f9f3 6ebd c548 1ebd 9ec0 8e3d e0c7 0ebd
00000370: 8481 46bd 184e 8f3c 54f1 a23c c6f6 213d
00000380: b0b1 603d 269d 243d a68b 92bd b0bb d13b
00000390: 0810 333d 0092 dabb 6131 2ebd bce7 8c3d
000003a0: b420 ddbc d64c 28bd 5840 85bd 0044 533b
000003b0: dcfd 023d 04df 823c 68d2 693c 8e2e 60bd
000003c0: b407 8abd 8092 a63a 46c5 863d 368a 2a3d
000003d0: 421c 2cbd c07c 19bc f6e9 59bd 219b 0ebd
000003e0: 1022 563c a8f7 203d 64de 743d 96b2 87bd
000003f0: 18a5 453d 987c 50bd 3463 dd3c 2827 7a3d
0.06051135 -0.014322907 0.06209378 0.0224865 -0.061112307 0.049943335 -0.019856866 -0.027664173
-0.05990518 -0.07174736 0.020648256 -0.015764829 0.028096974 -0.059226282 0.05358021 -0.052975766
-0.012461625 0.015073873 0.03725726 0.0582626 0.06574282 -0.057224225 0.018162519 -0.031041667
-0.007908605 -0.05401762 0.06573556 -0.052968316 0.038570695 0.025362968 0.023451671 -0.039017778
0.06559792 0.01585912 0.009283796 -0.06359909 0.030295625 -0.010826804 -0.03306227 0.06198913
0.016089946 -0.039929286 -0.03652743 -0.0034464747 0.040296257 -0.018441565 -0.041177694 -0.024713684
-0.053915482 0.025737733 0.055861548 -0.067942604 0.01676125 0.037281804 0.013086319 -0.025701083
0.03766793 0.037925646 0.026985876 -0.0126816 -0.019110385 0.007720679 -0.012748912 -0.021506373
0.046130784 0.06202182 -0.007144518 -0.016158365 0.0010531098 -0.004309073 0.01735019 0.020224117
-0.06554779 -0.026633006 0.06077546 0.028113708 -0.0035895035 -0.043510973 -0.04415323 -0.0646464
-0.02352431 0.024371698 0.04601638 0.033320136 -0.06379317 -0.043399595 -0.011389434 0.06981243
0.0104397535 -0.018689603 0.029857323 -0.027487759 -0.046711653 0.052675076 -0.032815274 -0.014467441
-0.07179381 0.048300445 0.054677576 0.026301779 -0.05032143 -0.071226254 -0.058613967 0.053816274
0.03464865 0.060730353 0.037807047 0.018265352 -0.0007067248 -0.054884795 -0.061832204 -0.067502975
0.029543154 -0.035432562 -0.014524154 -0.041533515 -0.013150852 -0.050794907 -0.047156215 0.023939162
-0.021448303 0.044552907 -0.023152377 -0.05294065 -0.012733381 -0.03498363 -0.02207943 -0.06870437
0.04037778 -0.050244235 0.036273308 0.032749057 0.05155974 -0.05535721 0.05190356 -0.034117907
0.026779614 0.06777476 -0.010178097 -0.00055811554 -0.016615462 -0.06025982 0.03463401 -0.07164324
0.044802375 0.0539985 0.06825048 -0.017023139 -0.0592969 0.016225725 0.039868005 -0.07183022
-0.016381133 -0.04326197 -0.0063121542 -0.03552245 -0.029500257 -0.022910621 -0.06858228 0.059215024
0.060501337 -0.011321049 -0.008218728 -0.029453516 -0.06517294 -0.07023065 0.026822135 -0.039623994
-0.04639565 -0.005630836 -0.02403301 -0.0233481 0.0023188666 -0.015307896 -0.02484861 -0.03455484
-0.058732934 0.060514048 -0.028881017 0.019123249 -0.025040109 0.005864531 0.06728299 0.033249795
-0.06254144 0.028643988 0.068505704 0.018986404 0.048383735 0.0711503 -0.011058349 0.014978953
-0.050159834 -0.014872335 0.053447023 0.036997028 -0.04566761 -0.057871066 -0.049317524 -0.07122176
-0.055688247 -0.017847154 0.048705064 0.012079775 -0.05489197 -0.057895523 0.035902187 -0.05368212
-0.008885957 0.0346198 -0.033400584 -0.007869273 -0.0062818974 -0.017073933 -0.036591895 -0.06433402
-0.05833814 -0.038643617 0.069703326 -0.034858584 -0.04846336 0.017493293 0.019890465 0.039541982
0.054856956 0.04018893 -0.07155542 0.006400548 0.04371646 -0.0066702366 -0.04252756 0.06880137
-0.026993133 -0.0410889 -0.06506413 0.0032236576 0.03198038 0.015975483 0.014271356 -0.054731898
-0.067397505 0.0012708455 0.06580596 0.041635714 -0.042019136 -0.009368122 -0.05320164 -0.03481591
0.013069645 0.039298683 0.0597824 -0.066258594 0.04825315 -0.05090007 0.027024843 0.0610725

fc_1.bias f4 [50]
00000000: 2606 e3bc b4a1 603d df1f 26be 0467 86be
00000010: 8eb4 a0bd 67d3 5cbe 17aa 9abd 7b94 4ebd
00000020: b34c 36be b8e5 00bd ca1d 3abc 788e f1bc
00000030: a6f0 1ebe c5e7 1bbe 5a4d 553d 8a6f 83bd
00000040: 907f 0ebd 3a2b 0f3d e8d5 2e3d 11d4 f1bc
00000050: ccdc 213d 07bc 7ebc 8856 033c ca2c 473d
00000060: 8d82 9c3c fe94 82be dd76 33bd b05b a0bb
00000070: 7457 2cbe 5ca8 89bc fc11 833d f836 08bc
00000080: d757 39bd 9f52 c8bc d952 99bd a2a8 51be
00000090: 93e2 87bd cfca 0abe 98c3 80be aa6c 403d
000000a0: 2ec0 85be b852 2cbc 39b5 23bd 9264 da3c
000000b0: fbc5 26be f035 8abd bcd2 83be e13c 13bc
000000c0: 007e cbba 7ed4 58be
-0.027712893 0.054841712 -0.16223095 -0.2625047 -0.07846938 -0.21565019 -0.07551973 -0.05043457
-0.17802696 -0.031469077 -0.011359641 -0.02948688 -0.15521488 -0.15225132 0.05207572 -0.06417759
-0.03478962 0.034953333 0.042684466 -0.029520066 0.03951721 -0.015547759 0.008016236 0.0486267
0.01910522 -0.25504297 -0.04381453 -0.0048937425 -0.16830236 -0.016803913 0.063999146 -0.008313887
-0.045249786 -0.02445346 -0.07486505 -0.20474485 -0.066350125 -0.13553928 -0.25149226 0.04697863
-0.26123184 -0.010517769 -0.03996775 0.026659284 -0.16286461 -0.06748569 -0.25746715 -0.008986683
-0.0015525222 -0.2117481

fc_2.weight f4 [1, 50]
00000000: b419 303d 70f7 e4bc 928e ef3d 5529 803d
00000010: 9e68 28bd e2c5 8d3d 539d d4bd 2584 8abd
00000020: c26e 883d 716e 53bd 6fad 01be 52f5 903d
00000030: b40f 6f3d 7716 953d b057 493d 65e6 0ebe
00000040: 3380 4cbd 7ab1 8cbd a391 0a3e b24d 47bd
00000050: 4a46 bebd baf6 1dbd 00a2 5e3c b070 693d
00000060: ec8e 973d 2508 c93d 50f5 6d3c 3e74 ca3d
00000070: 58af b43d 1c88 9a3d 135c f8bd 004c 3d3c
00000080: 0ed0 b0bc 1523 f6bd 360e 70bd 2b6e ca3d
00000090: 286d 543d 5e66 ea3d ed02 c33d 00cd 8dba
000000a0: d127 ed3d 605c f43c ec2c aabc 2a3f 54bd
000000b0: 939b c23d 52d8 813d 49d9 b83d 0762 16bc
000000c0: 0307 06be b63f 713d
0.042993262 -0.027950019 0.11697115 0.062578835 -0.041115396 0.06922509 -0.1038157 -0.06763486
0.066617504 -0.051618997 -0.12663816 0.07078041 0.058364585 0.072796755 0.04915589 -0.13955076
-0.049926948 -0.068697885 0.13532118 -0.04865808 -0.0929075 -0.038565375 0.0135884285 0.056992233
0.07400307 0.098160066 0.014523819 0.09885453 0.08822507 0.07545492 -0.12126937 0.011553764
-0.021583583 -0.1201841 -0.058607303 0.09884294 0.051861912 0.11445306 0.095220424 -0.0010818541
0.1157986 0.029829204 -0.020773374 -0.05181805 0.0950233 0.06340088 0.09025819 -0.009178645
-0.13088612 0.05889865
