src/data/cnn_checkpoint.pth (torch, 41771 bytes, 5 tensors)

conv_1.weight f4 [32, 1, 3]
0	0x3ec952d4	0.39321005
1	0x3ee30f52	0.44347626
2	0xbe414880	-0.18875313
3	0x3effbb66	0.4994766
4	0xbe127930	-0.14304042
5	0x3ddfab6a	0.109213665
6	0xbe980a8e	-0.29695553
7	0x3eac833a	0.33693868
8	0x3f0695ab	0.52572125
9	0xbee87e41	-0.45408824
10	0x3efee0f4	0.49781
11	0x3e07ac0d	0.13249226
12	0x3ec3f7cb	0.3827499
13	0x3d3bf41d	0.0458871
14	0x3e83f9a0	0.25776386
15	0xbde65bda	-0.11247988
16	0x3ed99ee8	0.42504048
17	0x3dab4031	0.08361853
18	0xbe89ffdb	-0.26953015
19	0x3e16b294	0.1471656
20	0xbe8831fe	-0.2660064
21	0xbd9f3a10	-0.077747464
22	0xbe650ee0	-0.22368956
23	0x3ed522e6	0.41628188
24	0xbee95728	-0.45574307
25	0xbe8846b5	-0.26616445
26	0xbe26f11c	-0.16302913
27	0xbeb1bcf7	-0.3471448
28	0x3d5f3320	0.054492116
29	0xbf11fb0a	-0.5702368
30	0x3effe30f	0.4997792
31	0xbefca0d7	-0.4934146
32	0x3eeae94b	0.45881113
33	0x3d87000a	0.06591804
34	0xbe4fe259	-0.20301189
35	0x3eb63e0e	0.3559422
36	0x3d30cbf8	0.04316327
37	0x3ee260ef	0.4421458
38	0x3d81b63e	0.06333588
39	0xbe3a7362	-0.18208078
40	0x3e1a8cea	0.15092817
41	0xbe24e0b6	-0.16101345
42	0x3e66088b	0.22464196
43	0x3f02585e	0.5091609
44	0x3eadc7d0	0.33941507
45	0xbe8ac2c5	-0.27101722
46	0x3ea9368a	0.33049423
47	0x3def31c2	0.116794124
48	0x3e961e24	0.2931987
49	0xbeb42bf6	-0.3518979
50	0xbf124f64	-0.5715239
51	0xbe646b3e	-0.22306535
52	0xbedb1b79	-0.42794397
53	0x3efc0dfe	0.49229425
54	0x3dc267e2	0.0949247
55	0x3e490b56	0.1963323
56	0x3e2be5ca	0.16786876
57	0xbbfcc8d5	-0.0077143707
58	0x3eedbad6	0.46431607
59	0xbedf8701	-0.43657687
60	0x3d14e5f0	0.036352098
61	0xbec9c2db	-0.39406475
62	0x3e364cbc	0.1780271
63	0xbe4b99e2	-0.1988292
64	0x3e2c2ca6	0.16813907
65	0xbe036192	-0.12830189
66	0x3ee1f688	0.441334
67	0xbed08c0b	-0.40731844
68	0xbeb04c18	-0.34433055
69	0xbebef4e9	-0.37296227
70	0x3f024a3c	0.5089452
71	0x3e498fc2	0.19683746
72	0x3f09c73f	0.5381965
73	0xbf00c5d5	-0.5030187
74	0xbf1299d7	-0.5726599
75	0xbee744f4	-0.45169795
76	0xbec6d961	-0.38837722
77	0x3e6f7664	0.23385006
78	0x3e32d862	0.17465356
79	0x3ef64f89	0.48107556
80	0xbeb47d7b	-0.35251984
81	0xbec9842b	-0.3935865
82	0x3e940076	0.28906602
83	0xbe801115	-0.25013033
84	0x3ea4d2cd	0.32192078
85	0xbe123ca5	-0.14280947
86	0x3eb02791	0.34405187
87	0xbee5aca1	-0.44858268
88	0xbe952d18	-0.29135966
89	0x3e343eb8	0.1760205
90	0x3dba35c0	0.09092283
91	0xbe1c8b99	-0.15287627
92	0x3eb9ce77	0.36290333
93	0x3ee45f7d	0.44604102
94	0xbed10438	-0.4082353
95	0xbe9dd02f	-0.30822894

conv_1.bias f4 [32]
0	0x3ed33c17	0.41256782
1	0xbe91e291	-0.2849317
2	0xbe9a697c	-0.30158603
3	0xbf2fe400	-0.68707275
4	0xbedeadc0	-0.43491936
5	0x3d38f0c2	0.04515148
6	0xbd9c1208	-0.07620627
7	0xbf07d707	-0.5306248
8	0x3c5de240	0.013542712
9	0xbec9ebd2	-0.3943773
10	0xbf1585d6	-0.5840734
11	0xbed7ce42	-0.4214955
12	0xbf20c108	-0.6279454
13	0xbebe49c5	-0.37165657
14	0x3efe429f	0.49660203
15	0x3c7aa30e	0.015297664
16	0x3e362fa4	0.17791611
17	0xbf207258	-0.62674475
18	0xbf07cbb5	-0.5304521
19	0xbe5f12fe	-0.21784589
20	0x3db8e530	0.09028089
21	0xbf032bb8	-0.51238585
22	0xbdec8302	-0.11548425
23	0xbeea65b4	-0.45780718
24	0x3e061aad	0.13096114
25	0xbe5bfd6a	-0.21483389
26	0xbe3304d3	-0.17482309
27	0xbee628ee	-0.44953102
28	0xbeffccc8	-0.49960923
29	0xbeac749c	-0.33682716
30	0xbe9e53b7	-0.30923244
31	0xbe4dd821	-0.20101978

fc_1.weight f4 [50, 192]
0	0x3d77dac0	0.06051135
1	0xbc6aaaa0	-0.014322907
2	0x3d7e560c	0.06209378
3	0x3cb8359c	0.0224865
4	0xbd7a50e6	-0.061112307
5	0x3d4c9162	0.049943335
6	0xbca2aade	-0.019856866
7	0xbce29ffa	-0.027664173
8	0xbd755f22	-0.05990518
9	0xbd92f048	-0.07174736
10	0x3ca92688	0.020648256
11	0xbc81253e	-0.015764829
12	0x3ce62ba0	0.028096974
13	0xbd729742	-0.059226282
14	0x3d5b76ec	0.05358021
15	0xbd58fd1e	-0.052975766
16	0xbc4c2bd8	-0.012461625
17	0x3c76f868	0.015073873
18	0x3d189b12	0.03725726
19	0x3d6ea4c4	0.0582626
20	0x3d86a42c	0.06574282
21	0xbd6a63f3	-0.057224225
22	0x3c94c990	0.018162519
23	0xbcfe4b18	-0.031041667
24	0xbc019318	-0.007908605
25	0xbd5d4194	-0.05401762
26	0x3d86a05e	0.06573556
27	0xbd58f54e	-0.052968316
28	0x3d1dfc4e	0.038570695
29	0x3ccfc600	0.025362968
30	0x3cc01db8	0.023451671
31	0xbd1fd11b	-0.039017778
32	0x3d865834	0.06559792
33	0x3c81eafc	0.01585912
34	0x3c181b10	0.009283796
35	0xbd82403d	-0.06359909
36	0x3cf82e88	0.030295625
37	0xbc3162e8	-0.010826804
38	0xbd076c4e	-0.03306227
39	0x3d7de850	0.06198913
40	0x3c83cf10	0.016089946
41	0xbd238ce4	-0.039929286
42	0xbd159dc9	-0.03652743
43	0xbb61de40	-0.0034464747
44	0x3d250db0	0.040296257
45	0xbc9712c4	-0.018441565
46	0xbd28a9f1	-0.041177694
47	0xbcca745a	-0.024713684
48	0xbd5cd67b	-0.053915482
49	0x3cd2d7f0	0.025737733
50	0x3d64cf14	0.055861548
51	0xbd8b257e	-0.067942604
52	0x3c894ee4	0.01676125
53	0x3d18b4ce	0.037281804
54	0x3c566800	0.013086319
55	0xbcd28b14	-0.025701083
56	0x3d1a49b0	0.03766793
57	0x3d1b57ec	0.037925646
58	0x3cdd117c	0.026985876
59	0xbc4fc67c	-0.0126816
60	0xbc9c8d62	-0.019110385
61	0x3bfcfdc0	0.007720679
62	0xbc50e0d0	-0.012748912
63	0xbcb02e22	-0.021506373
64	0x3d3cf3a2	0.046130784
65	0x3d7e0a98	0.06202182
66	0xbbea1c90	-0.007144518
67	0xbc845e8c	-0.016158365
68	0x3a8a0880	0.0010531098
69	0xbb8d3320	-0.004309073
70	0x3c8e21fc	0.01735019
71	0x3ca5ad0c	0.020224117
72	0xbd863deb	-0.06554779
73	0xbcda2d76	-0.026633006
74	0x3d78efb0	0.06077546
75	0x3ce64eb8	0.028113708
76	0xbb6b3de0	-0.0035895035
77	0xbd323890	-0.043510973
78	0xbd34da04	-0.04415323
79	0xbd846555	-0.0646464
80	0xbcc0b60e	-0.02352431
81	0x3cc7a728	0.024371698
82	0x3d3c7bac	0.04601638
83	0x3d087ab2	0.033320136
84	0xbd82a5fe	-0.06379317
85	0xbd31c3c6	-0.043399595
86	0xbc3a9ac0	-0.011389434
87	0x3d8ef9d2	0.06981243
88	0x3c2b0b80	0.0104397535
89	0xbc991af0	-0.018689603
90	0x3cf49758	0.029857323
91	0xbce12e02	-0.027487759
92	0xbd3f54b8	-0.046711653
93	0x3d57c1d2	0.052675076
94	0xbd06694f	-0.032815274
95	0xbc6d08d8	-0.014467441
96	0xbd9308a2	-0.07179381
97	0x3d45d6b0	0.048300445
98	0x3d5ff598	0.054677576
99	0x3cd776d4	0.026301779
100	0xbd4e1dd8	-0.05032143
101	0xbd91df12	-0.071226254
102	0xbd701533	-0.058613967
103	0x3d5c6e74	0.053816274
104	0x3d0debbe	0.03464865
105	0x3d78c064	0.060730353
106	0x3d1adb90	0.037807047
107	0x3c95a138	0.018265352
108	0xba394380	-0.0007067248
109	0xbd60cee1	-0.054884795
110	0xbd7d43c4	-0.061832204
111	0xbd8a3f00	-0.067502975
112	0x3cf2047c	0.029543154
113	0xbd1121bc	-0.035432562
114	0xbc6df6b8	-0.014524154
115	0xbd2a1f0c	-0.041533515
116	0xbc5776ac	-0.013150852
117	0xbd500e52	-0.050794907
118	0xbd4126e0	-0.047156215
119	0x3cc41c10	0.023939162
120	0xbcafb45a	-0.021448303
121	0x3d367d1c	0.044552907
122	0xbcbdaa0e	-0.023152377
123	0xbd58d84c	-0.05294065
124	0xbc509fac	-0.012733381
125	0xbd0f4aff	-0.03498363
126	0xbcb4dfec	-0.02207943
127	0xbd8cb4e0	-0.06870437
128	0x3d25632c	0.04037778
129	0xbd4dcce6	-0.050244235
130	0x3d149352	0.036273308
131	0x3d0623e0	0.032749057
132	0x3d53304e	0.05155974
133	0xbd62be3e	-0.05535721
134	0x3d5498d4	0.05190356
135	0xbd0bbf38	-0.034117907
136	0x3cdb60ec	0.026779614
137	0x3d8acd7e	0.06777476
138	0xbc26c208	-0.010178097
139	0xba124e80	-0.00055811554
140	0xbc881d26	-0.016615462
141	0xbd76d300	-0.06025982
142	0x3d0ddc64	0.03463401
143	0xbd92b9b1	-0.07164324
144	0x3d3782b2	0.044802375
145	0x3d5d2d88	0.0539985
146	0x3d8bc6e8	0.06825048
147	0xbc8b741c	-0.017023139
148	0xbd72e14e	-0.0592969
149	0x3c84ebd0	0.016225725
150	0x3d234ca2	0.039868005
151	0xbd931bb9	-0.07183022
152	0xbc8631ba	-0.016381133
153	0xbd313377	-0.04326197
154	0xbbced630	-0.0063121542
155	0xbd117ffd	-0.03552245
156	0xbcf1aa86	-0.029500257
157	0xbcbbaf0e	-0.022910621
158	0xbd8c74de	-0.06858228
159	0x3d728b74	0.059215024
160	0x3d77d040	0.060501337
161	0xbc397bec	-0.011321049
162	0xbc06a7d8	-0.008218728
163	0xbcf14880	-0.029453516
164	0xbd857964	-0.06517294
165	0xbd8fd516	-0.07023065
166	0x3cdbba18	0.026822135
167	0xbd224cc5	-0.039623994
168	0xbd3e095d	-0.04639565
169	0xbbb882e0	-0.005630836
170	0xbcc4e0e0	-0.02403301
171	0xbcbf4484	-0.0233481
172	0x3b17f820	0.0023188666
173	0xbc7acdf8	-0.015307896
174	0xbccb8f50	-0.02484861
175	0xbd0d8960	-0.03455484
176	0xbd7091f2	-0.058732934
177	0x3d77dd94	0.060514048
178	0xbcec97e2	-0.028881017
179	0x3c9ca85c	0.019123249
180	0xbccd20ea	-0.025040109
181	0x3bc02b40	0.005864531
182	0x3d89cbaa	0.06728299
183	0x3d0830f0	0.033249795
184	0xbd8015ba	-0.06254144
185	0x3ceaa6cc	0.028643988
186	0x3d8c4cb8	0.068505704
187	0x3c9b8960	0.018986404
188	0x3d462e06	0.048383735
189	0x3d91b740	0.0711503
190	0xbc352e14	-0.011058349
191	0x3c756a48	0.014978953
192	0xbd4d7466	-0.050159834
193	0xbc73ab18	-0.014872335
194	0x3d5aeb44	0.053447023
195	0x3d178a32	0.036997028
196	0xbd3b0df6	-0.04566761
197	0xbd6d0a36	-0.057871066
198	0xbd4a012c	-0.049317524
199	0xbd91dcb7	-0.07122176
200	0xbd64195c	-0.055688247
201	0xbc923432	-0.017847154
202	0x3d477ef6	0.048705064
203	0x3c45ea40	0.012079775
204	0xbd60d667	-0.05489197
205	0xbd6d23db	-0.057895523
206	0x3d130e2c	0.035902187
207	0xbd5be1c8	-0.05368212
208	0xbc119668	-0.008885957
209	0x3d0dcd7e	0.0346198
210	0xbd08cf0d	-0.033400584
211	0xbc00ee20	-0.007869273
212	0xbbcdd860	-0.0062818974
213	0xbc8bdea2	-0.017073933
214	0xbd15e162	-0.036591895
215	0xbd83c18e	-0.06433402
216	0xbd6ef3f9	-0.05833814
217	0xbd1e48c5	-0.038643617
218	0x3d8ec09e	0.069703326
219	0xbd0ec7e0	-0.034858584
220	0xbd468184	-0.04846336
221	0x3c8f4e18	0.017493293
222	0x3ca2f154	0.019890465
223	0x3d21f6c6	0.039541982
224	0x3d60b1b0	0.054856956
225	0x3d249d26	0.04018893
226	0xbd928ba6	-0.07155542
227	0x3bd1bbb0	0.006400548
228	0x3d331008	0.04371646
229	0xbbda9200	-0.0066702366
230	0xbd2e3161	-0.04252756
231	0x3d8ce7bc	0.06880137
232	0xbcdd20b4	-0.026993133
233	0xbd284cd6	-0.0410889
234	0xbd854058	-0.06506413
235	0x3b534400	0.0032236576
236	0x3d02fddc	0.03198038
237	0x3c82df04	0.015975483
238	0x3c69d268	0.014271356
239	0xbd602e8e	-0.054731898
240	0xbd8a07b4	-0.067397505
241	0x3aa69280	0.0012708455
242	0x3d86c546	0.06580596
243	0x3d2a8a36	0.041635714
244	0xbd2c1c42	-0.042019136
245	0xbc197cc0	-0.009368122
246	0xbd59e9f6	-0.05320164
247	0xbd0e9b21	-0.03481591
248	0x3c562210	0.013069645
249	0x3d20f7a8	0.039298683
250	0x3d74de64	0.0597824
251	0xbd87b296	-0.066258594
252	0x3d45a518	0.04825315
253	0xbd507c98	-0.05090007
254	0x3cdd6334	0.027024843
255	0x3d7a2728	0.0610725

fc_1.bias f4 [50]
0	0xbce30626	-0.027712893
1	0x3d60a1b4	0.054841712
2	0xbcde0754	-0.027103104
3	0xbdc07158	-0.093966186
4	0xbda40c8e	-0.08010207
5	0xbd5f05a9	-0.054448757
6	0xbd99fb7d	-0.07518671
7	0xbd4e947b	-0.05043457
8	0xbcc2b401	-0.023767473
9	0xbd038f06	-0.03211882
10	0xbc39b0e2	-0.011333676
11	0xbcf18e78	-0.02948688
12	0xbb8ae8e3	-0.004239188
13	0xbb8a648c	-0.004223412
14	0x3d554d5a	0.05207572
15	0xbd836f8a	-0.06417759
16	0xbd0ec284	-0.034853473
17	0x3d0f2b3a	0.034953333
18	0x3d2ed5e8	0.042684466
19	0xbcf23dd6	-0.029570501
20	0x3d21dccc	0.03951721
21	0xbc7e08d4	-0.0155050345
22	0x3c035688	0.008016236
23	0x3d472cca	0.0486267
24	0x3d4a3808	0.04936984
25	0xbde884c2	-0.113534465
26	0xbd3376dd	-0.04381453
27	0x3cd16f9c	0.025565915
28	0xbc75cc8f	-0.015002384
29	0xbc89a85c	-0.016803913
30	0x3d8311fc	0.063999146
31	0xbc0836f8	-0.008313887
32	0xbd396dd7	-0.045270767
33	0xbcc8bfce	-0.024505522
34	0xbd996f4e	-0.07491933
35	0xbd1252c6	-0.03572347
36	0xbd87e293	-0.066350125
37	0xbaeb70d9	-0.0017962708
38	0xbdd6f2d6	-0.10495536
39	0x3d406caa	0.04697863
40	0xbdf973e1	-0.12180305
41	0xbc2c52b8	-0.010517769
42	0xbd23b539	-0.03996775
43	0x3cdb5741	0.026775004
44	0xbcac1caa	-0.021009762
45	0xbd8a35f0	-0.06748569
46	0xbdde95dc	-0.10868427
47	0xbc128ba5	-0.008944427
48	0xbacb7e00	-0.0015525222
49	0xbd4e8822	-0.050422795

fc_2.weight f4 [1, 50]
0	0x3d3019b4	0.042993262
1	0xbce4f770	-0.027950019
2	0x3e05917e	0.13043782
3	0x3d5d0a29	0.053964768
4	0xbd27476e	-0.040839605
5	0x3d8596d6	0.0652291
6	0xbdd58a3a	-0.10426755
7	0xbd8a8425	-0.06763486
8	0x3d82694b	0.06367739
9	0xbd4f8963	-0.05066813
10	0xbe01ae72	-0.12664202
11	0x3d90f552	0.07078041
12	0x3d5fb265	0.05461349
13	0x3d93868f	0.072033994
14	0x3d4957b0	0.04915589
15	0xbe0ee665	-0.13955076
16	0xbd4cf399	-0.050037
17	0xbd8cb17a	-0.068697885
18	0x3e0a91a3	0.13532118
19	0xbd4780c9	-0.048706803
20	0xbdbe464a	-0.0929075
21	0xbd1defd3	-0.038558792
22	0x3c5ea200	0.0135884285
23	0x3d6970b0	0.056992233
24	0x3dd54b48	0.104147494
25	0x3dd8274b	0.105543695
26	0x3c6df550	0.014523819
27	0x3e03ed81	0.1288357
28	0x3db2bc7c	0.08727357
29	0x3d9a881c	0.07545492
30	0xbdf85c13	-0.12126937
31	0x3c3d4c00	0.011553764
32	0xbcb09eeb	-0.021560153
33	0xbdf6269f	-0.12019085
34	0xbd702a9b	-0.05863438
35	0x3dd659b7	0.104663305
36	0x3d546d28	0.051861912
37	0x3df9ca3d	0.12196777
38	0x3dce5846	0.100754306
39	0xba8dcd00	-0.0010818541
40	0x3e03f009	0.12884535
41	0x3cf45c60	0.029829204
42	0xbcaa2cec	-0.020773374
43	0xbd54a1d8	-0.05191216
44	0x3dd110f8	0.10208315
45	0x3d81d852	0.06340088
46	0x3dc05c1e	0.0939257
47	0xbc1acc9c	-0.009448197
48	0xbe060703	-0.13088612
49	0x3d538882	0.051643856
