src/data/mlp_checkpoint_2.pth (torch, 2839 bytes, 6 tensors)

linear1.weight f4 [16, 3]
0	0x3eaca474	0.33719218
1	0x3eda80d4	0.42676413
2	0xbdd2b850	-0.10289061
3	0x3f028c04	0.50994897
4	0xbd8966ef	-0.06709086
5	0x3e8acccd	0.27109376
6	0xbee4f97a	-0.44721586
7	0x3e6d85e2	0.23195603
8	0x3efcb417	0.49356148
9	0xbf03ca24	-0.5148032
10	0x3ece8e4a	0.40342933
11	0x3ba6c7d3	0.005089739
12	0x3e7fbb6e	0.24973843
13	0xbcd4fa75	-0.025998333
14	0x3e8830a8	0.26599622
15	0xbdc6eba3	-0.09712913
16	0x3ef69585	0.4816095
17	0x3e566fe9	0.20941128
18	0xbe89ffdb	-0.26953015
19	0x3e16b294	0.1471656
20	0xbe8831fe	-0.2660064
21	0xbe10c5b5	-0.14137919
22	0xbe9ce1da	-0.3064106
23	0x3e9a5fb5	0.30151144
24	0xbee95728	-0.45574307
25	0xbe8846b5	-0.26616445
26	0xbe26f11c	-0.16302913
27	0xbeb1bcf7	-0.3471448
28	0x3d5f3320	0.054492116
29	0xbf11fb0a	-0.5702368
30	0x3ec98a89	0.39363506
31	0xbf0d08db	-0.5509164
32	0x3ee85ddc	0.4538411
33	0x3dce1b82	0.100638404
34	0xbde4ce7c	-0.11172196
35	0x3f08df16	0.534654
36	0xbce69cee	-0.028151002
37	0x3ec8c07c	0.39209354
38	0x3d6f9355	0.058490116
39	0xbe3a7362	-0.18208078
40	0x3e1ed8fc	0.1551246
41	0xbe2052b6	-0.15656552
42	0x3e1c2e04	0.15251929
43	0x3eee1bed	0.4650568
44	0x3eb1329d	0.34608927
45	0xbe528ac7	-0.20560752
46	0x3ed9f6c6	0.42571086
47	0x3e8a9c9f	0.27072617

linear1.bias f4 [16]
0	0x3e9067c9	0.28204182
1	0xbe333971	-0.17502381
2	0xbf1966e8	-0.5992265
3	0xbeaf3114	-0.3421713
4	0xbef8462e	-0.48491043
5	0x3f13ddb3	0.5776016
6	0x3e2a493c	0.16629499
7	0x3e1881e9	0.14893307
8	0x3e3af9c8	0.18259346
9	0xbc248dc0	-0.010043561
10	0x3ee998fb	0.45624527
11	0xbe6cb806	-0.23117074
12	0x3bce440b	0.0062947324
13	0xbec9c2db	-0.39406475
14	0x3e29f792	0.16598347
15	0xbd0cc83f	-0.034370657

linear2.weight f4 [8, 16]
0	0xbbe07e51	-0.0068509956
1	0xbde2dff6	-0.110778734
2	0x3e07fadd	0.1327929
3	0xbe2f7c05	-0.17137153
4	0xbe4462e4	-0.19178349
5	0xbe3115a0	-0.17293406
6	0x3e6641e2	0.2248607
7	0x3d7e2b65	0.062053103
8	0x3e765610	0.24056268
9	0xbe53454e	-0.20631906
10	0xbe99ae7a	-0.30015928
11	0xbe7e364d	-0.24825402
12	0xbe51b47a	-0.20479003
13	0x3dcf616c	0.101260036
14	0xb942d3f6	-0.00018580243
15	0x3dab9519	0.083780475
16	0xbd02704c	-0.031845376
17	0x3dea734d	0.11447773
18	0x3eea7359	0.45791128
19	0x3e6055fb	0.21907799
20	0x3ea04a01	0.3130646
21	0x3dfcbf22	0.12341143
22	0x3e12719a	0.14301148
23	0xbdec8b59	-0.11550016
24	0xbe0130ba	-0.12616244
25	0x3d9c18c4	0.07621911
26	0x3eaa6387	0.33279058
27	0x3e75f754	0.2402013
28	0x3eda7920	0.42670536
29	0x3e2e07fa	0.1699523
30	0xbdec481e	-0.11537193
31	0x3e2dc56a	0.16969839
32	0x3e6179e3	0.22019152
33	0x3da6ca35	0.08144037
34	0x3de52119	0.111879535
35	0xbe1d4a7f	-0.15360449
36	0xbcc00590	-0.023440152
37	0x3e369616	0.1783069
38	0xbd072938	-0.032998294
39	0xbdfc8c79	-0.123314805
40	0x3bc02840	0.005864173
41	0xbe2ede6e	-0.17077038
42	0xbd35f498	-0.044422716
43	0x3d4edaa0	0.050501466
44	0xbd2e630e	-0.042574935
45	0xbe230144	-0.15918452
46	0x3e7f3cd1	0.24925543
47	0x3e61b154	0.22040302
48	0x3e7ca3b9	0.2467183
49	0xbc97b9be	-0.018521186
50	0x3e58b2a0	0.2116189
51	0x3e0d0736	0.13772282
52	0x3e893964	0.26801598
53	0xbc0c6676	-0.0085693505
54	0xbddc9b64	-0.10771826
55	0xbe194258	-0.14966714
56	0x3a359e00	0.0006928146
57	0xbdbe8450	-0.0930258
58	0x3e729743	0.23690514
59	0x3dd5ea9b	0.10445138
60	0x3daf97cc	0.08573875
61	0xbe1559d2	-0.14585045
62	0x3dbc0ed3	0.09182515
63	0x3d1547ca	0.036445417
64	0x3d802e8a	0.062588766
65	0xbe1d83d7	-0.15382324
66	0x3de36872	0.11103906
67	0x3d16b56e	0.03679412
68	0xbe8ed8f8	-0.2789991
69	0x3cd97a83	0.026547676
70	0xbd8cdfc8	-0.068786204
71	0xbe0850fe	-0.13312146
72	0xbe547f80	-0.20751762
73	0xbe7e8150	-0.24854016
74	0xbccf8b06	-0.025334846
75	0xbe4117ac	-0.18856686
76	0xbc1f1a7d	-0.009710905
77	0xbe521700	-0.20516586
78	0x3d3da158	0.046296448
79	0xbe9c01f0	-0.30470228
80	0xbdf9d990	-0.121997
81	0xbd6ee8a2	-0.058327325
82	0x3d34e062	0.0441593
83	0x3e2837a3	0.16427474
84	0x3e075886	0.13217363
85	0xbe81486a	-0.2525056
86	0x3d80da88	0.062916815
87	0xbe146ef2	-0.14495447
88	0xbce06e00	-0.027396202
89	0xbe3f9d0c	-0.18712252
90	0x3e0cf9d4	0.13767177
91	0xbe845917	-0.2584922
92	0x3d3df7c4	0.046378866
93	0x3db3efe4	0.0878599
94	0xbcb82fd5	-0.022483746
95	0xbe708b4c	-0.23490638
96	0x3ddce109	0.107851095
97	0xbd43c3c0	-0.047794104
98	0xbd1c0419	-0.038089845
99	0xbe804bb0	-0.25057745
100	0x3cb724fe	0.022356506
101	0xbe0337a4	-0.12814194
102	0xbdea8f44	-0.11453107
103	0x3e3cfeba	0.18456545
104	0x3d644cb0	0.055737197
105	0xbe0da386	-0.1383191
106	0xbe441c2d	-0.19151373
107	0xbe01d3cb	-0.12678449
108	0x3d653e16	0.055967413
109	0xbd82d554	-0.06388345
110	0xbe316f8e	-0.17327711
111	0xbe4a0ee2	-0.1973224
112	0xbd9e8c18	-0.077415645
113	0x3e2efe87	0.17089282
114	0x3ebbbcbb	0.36667427
115	0x3b579328	0.0032894108
116	0x3da0ed62	0.07857777
117	0x3e13faac	0.14451092
118	0x3d39ae68	0.045332342
119	0xbcd07ccf	-0.025450138
120	0x3e059e00	0.13048553
121	0x3e068808	0.1313783
122	0x3e6b725f	0.22992848
123	0x3e2709b6	0.16312298
124	0x3e13d787	0.14437686
125	0x3cdb18d0	0.02674523
126	0x3cbf05eb	0.023318252
127	0x3df45ff9	0.11932368

linear2.bias f4 [8]
0	0x3d624d63	0.055249583
1	0x3f89c005	1.0761725
2	0x3edc109d	0.42981425
3	0x3f267d4e	0.6503495
4	0xbe13df4f	-0.14440654
5	0xbe0846c3	-0.13308243
6	0xbd53a07b	-0.051666718
7	0x3f564eb2	0.8371383

linear3.weight f4 [2, 8]
0	0xbe76a0c4	-0.24084765
1	0x3e94edc8	0.29087663
2	0x3ea36c1e	0.31918424
3	0x3eb38381	0.35061267
4	0x3dbd98c6	0.09257655
5	0xbe1fc178	-0.15601146
6	0xbe0458c8	-0.12924492
7	0x3eaf7b08	0.34273553
8	0xbd0599ca	-0.032617368
9	0x3e88b6d2	0.2670198
10	0x3e95f3eb	0.29287657
11	0x3eb41079	0.35168818
12	0xbe55f97a	-0.20895949
13	0xbe24e42d	-0.16102667
14	0x3ca865d2	0.020556364
15	0x3ec8fc89	0.3925517

linear3.bias f4 [2]
0	0x3f8718a0	1.055439
1	0x3f6b382c	0.91882586
