src/data/mlp_checkpoint_2.pth (torch, 2775 bytes, 6 tensors)

linear1.weight f4 [16, 3]
000000 78 a9 9f 3e 77 e1 d4 3e 85 dc a3 bd 33 53 f7 3e
       0.31183982 0.41578266 -0.08001045 0.48305663
000010 4b 4e a8 bd ef ef 93 3e dc b9 f3 be 0e d2 50 3e
       -0.08218058 0.28893992 -0.47602737 0.2039263
000020 6e cb fb 3e 09 bb 05 bf d9 09 cf 3e e6 5c ba 3b
       0.49178642 -0.5223852 0.404372 0.005687344
000030 a6 30 55 3e ec 7d 51 bd b4 34 8c 3e 01 64 0f be
       0.20819339 -0.05114548 0.2738396 -0.14002992
000040 9f 08 e7 3e b7 95 57 3e db ff 89 be 94 b2 16 3e
       0.45123765 0.21053205 -0.26953015 0.1471656
000050 fe 31 88 be 7d e5 10 be 5e 95 9c be 5b b8 9a 3e
       -0.2660064 -0.14150043 -0.30582708 0.30218777
000060 28 57 e9 be b5 46 88 be 1c f1 26 be f7 bc b1 be
       -0.45574307 -0.26616445 -0.16302913 -0.3471448
000070 20 33 5f 3d 0a fb 11 bf 9e 16 ba 3e 5d be 0d bf
       0.054492116 -0.5702368 0.3634538 -0.55368596
000080 a7 6f f4 3e b7 8d 90 3d 41 c4 fa bd 5c 0a 0e 3f
       0.47741434 0.0705828 -0.12244464 0.5548456
000090 38 87 49 bd d0 1f c7 3e 54 86 ab 3d 62 73 3a be
       -0.04920122 0.3889146 0.083752304 -0.18208078
0000a0 fc d8 1e 3e b6 52 20 be 22 68 d5 3d 53 2d dc 3e
       0.1551246 -0.15656552 0.104202524 0.4300333
0000b0 1a 6c b1 3e 68 ae 79 be 7f c5 cb 3e e9 a9 90 3e
       0.34652787 -0.24382937 0.39799115 0.2825463

linear1.bias f4 [16]
000000 04 0d 6b 3e f5 5e 78 be 72 30 28 bf 26 8f a4 be
       0.22954184 -0.24254973 -0.6569892 -0.32140464
000010 98 94 0c bf f2 c1 03 3f 3c 49 2a 3e 64 23 18 3e
       -0.54914236 0.5146781 0.16629499 0.1485725
000020 c8 f9 3a 3e c0 8d 24 bc 73 78 cb 3e be 1e 9d be
       0.18259346 -0.010043561 0.39740333 -0.30687517
000030 23 c9 59 bd db c2 c9 be f4 3a 99 3d 98 e6 e4 bd
       -0.053170335 -0.39406475 0.074819475 -0.11176795

linear2.weight f4 [8, 16]
000000 3a 58 6e bc 1d d7 e8 bd fc 89 f4 3d 89 c7 31 be
       -0.014547402 -0.113691546 0.11940381 -0.17361273
000010 31 2c 48 be bc 16 3b be e2 41 66 3e 75 a2 73 3d
       -0.19548108 -0.18270391 0.2248607 0.059481103
000020 10 56 76 3e 4e 45 53 be 7d 89 96 be 4b af 78 be
       0.24056268 -0.20631906 -0.2940177 -0.24285619
000030 7d df 62 be 6c 61 cf 3d 0d 9e 16 3c de 17 92 3d
       -0.22155567 0.101260036 0.009192956 0.071334586
000040 07 dc 04 bd 7b 21 94 3d 15 bb df 3e 43 3c b2 3e
       -0.032436397 0.072329484 0.4369742 0.348116
000050 e4 20 8b 3e 2e fc fd 3d 9a 71 12 3e 03 b6 23 be
       0.2717353 0.12401615 0.14301148 -0.159874
000060 ba 30 01 be c4 18 9c 3d d5 a2 91 3e ef 63 82 3e
       -0.12616244 0.07621911 0.28444543 0.25466868
000070 d0 da cb 3e fa 07 2e 3e 67 f0 4c bd 23 bf 19 3e
       0.39815378 0.1699523 -0.050033953 0.15014319
000080 60 a7 58 3e 94 43 e2 3d bb 07 17 3e f4 e2 08 be
       0.21157598 0.11048046 0.14749043 -0.13367826
000090 17 54 d8 bb f6 ef 37 3e 38 29 07 bd 49 37 ee bd
       -0.006601821 0.17962632 -0.032998294 -0.116316386
0000a0 40 28 c0 3b 6e de 2e be 5b 5d 77 bc 6a 42 9c 3d
       0.005864173 -0.17077038 -0.015097941 0.07629855
0000b0 4c 64 a5 bc 44 01 23 be 46 6a 6f 3e ba 27 5c 3e
       -0.020189427 -0.15918452 0.23380384 0.2149953
0000c0 6a 9c 68 3e b0 5a ca 3b dd 29 40 3e ca 4d a0 3e
       0.22715917 0.0061753616 0.1876597 0.31309348
0000d0 84 99 6d 3e 58 d6 33 bc 64 9b dc bd 58 42 19 be
       0.23203093 -0.0109763965 -0.10771826 -0.14966714
0000e0 00 9e 35 3a 50 84 be bd 3b 75 7c 3e 8a 0b fa 3d
       0.0006928146 -0.0930258 0.24654095 0.12209232
0000f0 42 66 eb 3d d2 59 15 be a0 d9 b0 3d ed 37 83 3d
       0.114941135 -0.14585045 0.08635259 0.06407151
000100 76 69 52 3d e5 99 27 be 42 f9 c6 3d 14 1d 05 3d
       0.051370107 -0.163673 0.09715511 0.032498434
000110 6a 9d 94 be 30 c7 5a 3c c8 df 8c bd fc 48 0c be
       -0.29026347 0.013353154 -0.068786204 -0.13699716
000120 80 7f 54 be 50 81 7e be ea 0c 04 bd 3f 03 4e be
       -0.20751762 -0.24854016 -0.03223888 -0.20118426
000130 4b 1a 6f bc 00 17 52 be a2 27 16 3d 30 86 9c be
       -0.014593671 -0.20516586 0.03665889 -0.30571127
000140 b2 9f 01 be 32 e5 aa bd bb 9e 24 3d a2 ad 26 3e
       -0.12658575 -0.08344497 0.04019044 0.16277173
000150 74 9a f1 3d d3 5c 81 be 88 da 80 3d dd b0 14 be
       0.11797038 -0.25266132 0.062916815 -0.14520593
000160 00 6e e0 bc 0c 9d 3f be cd 60 fe 3d da c4 84 be
       -0.027396202 -0.18712252 0.12420807 -0.25931436
000170 39 a6 04 3d e4 ef b3 3d f3 86 29 bd d9 0e 6a be
       0.032385085 0.0878599 -0.041388463 -0.22857226
000180 74 74 cb 3d ac e1 80 bd f0 a1 3d bd 04 48 81 be
       0.09934321 -0.062930435 -0.046297014 -0.25250256
000190 6a 64 7c 3c 98 d5 06 be 44 8f ea bd 90 ee 38 3e
       0.0154048 -0.13167417 -0.11453107 0.18059754
0001a0 b0 4c 64 3d 86 a3 0d be d5 32 47 be 1e eb 00 be
       0.055737197 -0.1383191 -0.19452985 -0.1258969
0001b0 ab c2 56 3d 54 d5 82 bd 78 82 30 be 46 33 4d be
       0.052431744 -0.06388345 -0.1723727 -0.2003909
0001c0 1e 2a 9f bd b4 55 22 3e 1d ac d8 3e 2f 2c b9 3d
       -0.07771705 0.15853006 0.42318812 0.090416305
0001d0 ff 71 b5 3d 84 09 00 3e 68 ae 39 3d 97 00 1b bc
       0.08859634 0.1250363 0.045332342 -0.00946059
0001e0 00 9e 05 3e 08 88 06 3e 59 2f 7e 3e 19 12 20 3e
       0.13048553 0.1313783 0.24822749 0.15631904
0001f0 24 5d 31 3e d0 18 db 3c e1 2a b7 3b 36 f9 e5 3d
       0.17320687 0.02674523 0.0055898284 0.11229174

linear2.bias f4 [8]
000000 65 cb 50 3d 98 3c b1 3f cf 47 29 3f 09 a7 83 3f
       0.050975222 1.3846617 0.66125196 1.028535
000010 cc d9 1d be da d1 1d be 4a 04 83 bd 2d 20 8d 3f
       -0.15415114 -0.15412083 -0.063973024 1.1025444

linear3.weight f4 [2, 8]
000000 ef 4d 62 be 38 19 9d 3e 33 fb 9d 3e 49 25 b3 3e
       -0.22100042 0.30683303 0.30855712 0.34989384
000010 27 21 ba 3d 2d ed 1c be 16 85 f4 bd 11 6e b6 3e
       0.090883546 -0.1532485 -0.11939447 0.3563085
000020 b6 63 a9 bc 0a b1 9a 3e e0 e1 9b 3e dc 81 b0 3e
       -0.020677429 0.30213195 0.30445766 0.34474075
000030 d7 97 5a be 6b 20 22 be 31 c9 f4 3c 2f 24 b9 3e
       -0.21346985 -0.15832679 0.029881092 0.36160418

linear3.bias f4 [2]
000000 39 a4 e1 3f c7 96 d6 3f
       1.7628242 1.6764764
