src/data/mlp_checkpoint_2.pth (torch, 3243 bytes, 6 tensors)

linear1.weight f4 [16, 3]
0	0x3e9fa97f	0.31184003
1	0x3ed4e179	0.41578272
2	0xbda3dc91	-0.08001054
3	0x3ef75330	0.48305655
4	0xbda84e4c	-0.08218059
5	0x3e93eff2	0.28894
6	0xbef3b9d7	-0.47602722
7	0x3e50d207	0.20392619
8	0x3efbcb71	0.4917865
9	0xbf05bb0d	-0.5223854
10	0x3ecf09db	0.40437207
11	0x3bba5b35	0.0056871423
12	0x3e5530a3	0.20819335
13	0xbd517def	-0.05114549
14	0x3e8c34b2	0.27383953
15	0xbe0f6400	-0.1400299
16	0x3ee708a0	0.45123768
17	0x3e5795b3	0.210532
18	0xbe89ffdb	-0.26953015
19	0x3e16b294	0.1471656
20	0xbe8831fe	-0.2660064
21	0xbe10e57d	-0.14150043
22	0xbe9c955d	-0.30582705
23	0x3e9ab85b	0.30218777
24	0xbee95728	-0.45574307
25	0xbe8846b5	-0.26616445
26	0xbe26f11c	-0.16302913
27	0xbeb1bcf7	-0.3471448
28	0x3d5f3320	0.054492116
29	0xbf11fb0a	-0.5702368
30	0x3eba169f	0.36345384
31	0xbf0dbe5b	-0.55368584
32	0x3ef46fa0	0.47741413
33	0x3d908dba	0.07058282
34	0xbdfac43e	-0.122444615
35	0x3f0e0a5c	0.5548456
36	0xbd49873a	-0.049201228
37	0x3ec71fd0	0.3889146
38	0x3dab8652	0.08375229
39	0xbe3a7362	-0.18208078
40	0x3e1ed8fc	0.1551246
41	0xbe2052b6	-0.15656552
42	0x3dd56822	0.104202524
43	0x3edc2d56	0.4300334
44	0x3eb16c1b	0.3465279
45	0xbe79ae5d	-0.2438292
46	0x3ecbc57f	0.39799115
47	0x3e90a9e5	0.2825462

linear1.bias f4 [16]
0	0x3e6b0d03	0.22954182
1	0xbe785eee	-0.24254963
2	0xbf28306d	-0.6569889
3	0xbea48f2f	-0.3214049
4	0xbf0c9491	-0.54914194
5	0x3f03c1f0	0.514678
6	0x3e2a493c	0.16629499
7	0x3e182367	0.14857255
8	0x3e3af9c8	0.18259346
9	0xbc248dc0	-0.010043561
10	0x3ecb7872	0.3974033
11	0xbe9d1eba	-0.30687505
12	0xbd59c923	-0.053170335
13	0xbec9c2db	-0.39406475
14	0x3d993ae9	0.07481939
15	0xbde4e690	-0.11176789

linear2.weight f4 [8, 16]
0	0xbc6e582e	-0.014547391
1	0xbde8d71b	-0.11369153
2	0x3df489fc	0.11940381
3	0xbe31c78b	-0.17361276
4	0xbe482c30	-0.19548106
5	0xbe3b16bc	-0.18270391
6	0x3e6641e2	0.2248607
7	0x3d73a271	0.059481088
8	0x3e765610	0.24056268
9	0xbe53454e	-0.20631906
10	0xbe96897d	-0.2940177
11	0xbe78af4a	-0.24285617
12	0xbe62df7d	-0.22155567
13	0x3dcf616c	0.101260036
14	0x3c169e17	0.009192965
15	0x3d9217e3	0.07133462
16	0xbd04dc0a	-0.032436408
17	0x3d94217f	0.072329514
18	0x3edfbb13	0.43697414
19	0x3eb23c3b	0.34811577
20	0x3e8b20e4	0.2717353
21	0x3dfdfc32	0.12401618
22	0x3e12719a	0.14301148
23	0xbe23b5f8	-0.15987384
24	0xbe0130ba	-0.12616244
25	0x3d9c18c4	0.07621911
26	0x3e91a2d2	0.28444535
27	0x3e8263ee	0.25466865
28	0x3ecbdad5	0.39815393
29	0x3e2e07fa	0.1699523
30	0xbd4cf06f	-0.050033983
31	0x3e19bf27	0.15014325
32	0x3e58a761	0.211576
33	0x3de24395	0.110480465
34	0x3e1707b7	0.14749037
35	0xbe08e2ff	-0.13367842
36	0xbbd853c7	-0.006601784
37	0x3e37eff8	0.17962635
38	0xbd072938	-0.032998294
39	0xbdee3745	-0.116316356
40	0x3bc02840	0.005864173
41	0xbe2ede6e	-0.17077038
42	0xbc775d2d	-0.015097898
43	0x3d9c426d	0.07629857
44	0xbca5645e	-0.02018946
45	0xbe230144	-0.15918452
46	0x3e6f6a45	0.23380382
47	0x3e5c27b6	0.21499524
48	0x3e689c66	0.22715911
49	0x3bca5ac1	0.0061753695
50	0x3e4029d5	0.18765958
51	0x3ea04dc5	0.31309333
52	0x3e6d9987	0.23203097
53	0xbc33d67d	-0.010976431
54	0xbddc9b64	-0.10771826
55	0xbe194258	-0.14966714
56	0x3a359e00	0.0006928146
57	0xbdbe8450	-0.0930258
58	0x3e7c753e	0.246541
59	0x3dfa0b85	0.122092284
60	0x3deb6630	0.114941
61	0xbe1559d2	-0.14585045
62	0x3db0d9a3	0.08635261
63	0x3d8337f1	0.06407154
64	0x3d526974	0.0513701
65	0xbe2799e5	-0.163673
66	0x3dc6f93f	0.09715509
67	0x3d051d12	0.032498427
68	0xbe949d6b	-0.2902635
69	0x3c5ac745	0.013353174
70	0xbd8cdfc8	-0.068786204
71	0xbe0c48fd	-0.13699718
72	0xbe547f80	-0.20751762
73	0xbe7e8150	-0.24854016
74	0xbd040ceb	-0.032238882
75	0xbe4e033d	-0.20118423
76	0xbc6f1a4b	-0.014593671
77	0xbe521700	-0.20516586
78	0x3d1627a7	0.03665891
79	0xbe9c8630	-0.30571127
80	0xbe019fb1	-0.12658574
81	0xbdaae532	-0.08344497
82	0x3d249eb7	0.040190425
83	0x3e26ada3	0.16277175
84	0x3df19a77	0.1179704
85	0xbe815cd3	-0.25266132
86	0x3d80da88	0.062916815
87	0xbe14b0dd	-0.14520593
88	0xbce06e00	-0.027396202
89	0xbe3f9d0c	-0.18712252
90	0x3dfe60cd	0.12420807
91	0xbe84c4da	-0.25931436
92	0x3d04a63b	0.032385092
93	0x3db3efe4	0.0878599
94	0xbd2986f3	-0.041388463
95	0xbe6a0ed9	-0.22857226
96	0x3dcb7473	0.0993432
97	0xbd80e1ad	-0.06293044
98	0xbd3da1f4	-0.04629703
99	0xbe814804	-0.25250256
100	0x3c7c6468	0.015404798
101	0xbe06d597	-0.13167416
102	0xbdea8f44	-0.11453107
103	0x3e38ee90	0.18059754
104	0x3d644cb0	0.055737197
105	0xbe0da386	-0.1383191
106	0xbe4732d5	-0.19452985
107	0xbe00eb1e	-0.1258969
108	0x3d56c2a8	0.052431732
109	0xbd82d554	-0.06388345
110	0xbe308278	-0.1723727
111	0xbe4d3346	-0.2003909
112	0xbd9f2a16	-0.07771699
113	0x3e2255af	0.15852998
114	0x3ed8ac17	0.42318794
115	0x3db92bf2	0.09041585
116	0x3db57206	0.08859639
117	0x3e000984	0.1250363
118	0x3d39ae68	0.045332342
119	0xbc1b007f	-0.0094605675
120	0x3e059e00	0.13048553
121	0x3e068808	0.1313783
122	0x3e7e2f59	0.24822749
123	0x3e20121a	0.15631905
124	0x3e315d24	0.17320687
125	0x3cdb18d0	0.02674523
126	0x3bb72ad1	0.005589821
127	0x3de5f93a	0.11229177

linear2.bias f4 [8]
0	0x3d50cb68	0.050975233
1	0x3fb13c99	1.3846618
2	0x3f2947ce	0.6612519
3	0x3f83a70a	1.0285351
4	0xbe1dd9cb	-0.15415113
5	0xbe1dd1da	-0.15412083
6	0xbd830449	-0.06397302
7	0x3f8d202d	1.1025444

linear3.weight f4 [2, 8]
0	0xbe624ded	-0.22100039
1	0x3e9d1937	0.306833
2	0x3e9dfb32	0.3085571
3	0x3eb3254a	0.34989387
4	0x3dba212b	0.090883575
5	0xbe1ced2b	-0.15324847
6	0xbdf48514	-0.11939445
7	0x3eb66e11	0.3563085
8	0xbca963a6	-0.020677399
9	0x3e9ab10a	0.30213195
10	0x3e9be1dd	0.30445758
11	0x3eb081dd	0.34474078
12	0xbe5a97d6	-0.21346983
13	0xbe22206b	-0.15832679
14	0x3cf4c927	0.029881073
15	0x3eb9242e	0.36160415

linear3.bias f4 [2]
0	0x3fe1a439	1.7628242
1	0x3fd696c9	1.6764766
