src/data/mlp_checkpoint.pth (torch, 2391 bytes, 5 tensors)

linear1.weight f4 [8, 3]
00000000: cd0e 9c3e 536e d13e 5d10 37bd 53e9 1c3f
00000010: 068e 203d a679 ea3e 98a3 abbe 83d1 aa3e
00000020: abb7 253f 8bfc 01bf 493a d43e e280 9f3c
00000030: c80a a63e c3d1 3c3d 1d0d d03e ddbb 4abe
00000040: 200b c23e d79c 483e dbff 89be 94b2 163e
00000050: fe31 88be f345 67bd c538 1fbe ead2 203f
0.30480042 0.40904483 -0.04469334 0.61293525 0.039197944 0.45795935 -0.3352325 0.3336297
0.6473338 -0.50775975 0.41450718 0.019470636 0.324301 0.046098482 0.40635005 -0.19798227
0.37899113 0.1959108 -0.26953015 0.1471656 -0.2660064 -0.056463193 -0.15549 0.6282183

linear1.bias f4 [8]
00000000: c479 28bf 2c6c 73be d344 b5be e55b e3be
00000010: 9fc2 1abe f50b 4abf 247b 053f a64f 0fbf
-0.658108 -0.23771733 -0.3540407 -0.44406047 -0.15113305 -0.78924495 0.5214102 -0.5598091

linear2.weight f4 [4, 8]
00000000: 1438 8d3d 2088 e2bd 6e02 51be 3adc 2f3e
00000010: 177d ddbd a6e8 7f3d d04f 1e3d c82e 93be
00000020: 8fd5 2fbd 04ab 31be ffa2 16bd 1d17 893e
00000030: 57fb e03c 0689 6bbe fefd 503e e829 08be
00000040: dc9e 3a3e 85a1 8d3d 3a6b 903d 10a5 6a3e
00000050: 0d4d be3d df37 013f 948e d03d 6b6b c53e
00000060: 3244 3a3e 6c9f 403e 2978 ec3e 55dc 8fbd
00000070: 3d4f 823e 011d dd3d 4c45 df3d 0262 793e
0.06895462 -0.1106112 -0.20411083 0.17173854 -0.108148746 0.06247773 0.038650334 -0.2874663
-0.042928275 -0.17350394 -0.03677654 0.26775447 0.027463598 -0.23001489 0.2040939 -0.13297236
0.18224663 0.06915573 0.07051702 0.22914529 0.0929204 0.5047588 0.101834446 0.38558516
0.18190077 0.18810815 0.46185425 -0.07024447 0.2545108 0.10796548 0.10901889 0.24353793

linear2.bias f4 [4]
00000000: 9930 edbd dcf8 83be 5723 cc3f d61c 5e3f
-0.11581535 -0.25775802 1.5948285 0.8676275

linear3.weight f4 [1, 4]
00000000: 9ad2 49be 32c8 5abe 7e24 183f 87a4 c83e
-0.19709244 -0.21365431 0.5943068 0.39188024
