src/data/mlp_checkpoint.pth (torch, 2603 bytes, 5 tensors)

linear1.weight f4 [8, 3]
0	0x3ea32071	0.31860688
1	0x3ed1c1cf	0.40968177
2	0xbd3be113	-0.045868944
3	0x3f208d3c	0.62715507
4	0x3d22b87a	0.03972671
5	0x3ee7bcad	0.45261136
6	0xbeac6a14	-0.3367468
7	0x3ea95831	0.33075097
8	0x3f2259c1	0.63418204
9	0xbf02c5ed	-0.5108326
10	0x3ed229a1	0.41047385
11	0x3c6ae641	0.014337123
12	0x3eb29704	0.3488084
13	0x3d724b5e	0.059153907
14	0x3ed419eb	0.41426024
15	0xbe441df5	-0.19152053
16	0x3ec2deb3	0.3806053
17	0x3e46f9c4	0.19431216
18	0xbe89ffdb	-0.26953015
19	0x3e16b294	0.1471656
20	0xbe8831fe	-0.2660064
21	0xbd46e4d0	-0.048558056
22	0xbe1e331c	-0.15449184
23	0x3f1ebeb9	0.6200977

linear1.bias f4 [8]
0	0xbf1a3f87	-0.60253185
1	0xbe41cada	-0.18925038
2	0xbe8bdaad	-0.27315274
3	0xbee39332	-0.4444824
4	0xbda73aa3	-0.08165481
5	0xbf3a8b0a	-0.72868407
6	0x3f057b24	0.5214102
7	0xbf042ec6	-0.5163387

linear2.weight f4 [4, 8]
0	0x3d936644	0.0719724
1	0xbdd640e5	-0.104615964
2	0xbe4ef73f	-0.20211504
3	0x3e2d5ed9	0.16930713
4	0xbdd47ef1	-0.10375775
5	0x3d9dc533	0.077036284
6	0x3d1e4fd0	0.038650334
7	0xbe918f47	-0.28429624
8	0xbd330b7f	-0.043712135
9	0xbe309da9	-0.17247643
10	0xbd029dca	-0.03188876
11	0x3e877480	0.2645607
12	0x3d153c5d	0.03643452
13	0xbe6a678d	-0.22891064
14	0x3e50fdfe	0.2040939
15	0xbe0df4a3	-0.13862853
16	0x3e390de8	0.18071711
17	0x3d84cb8e	0.064841375
18	0x3d1f6b52	0.038920708
19	0x3e729ce1	0.23692657
20	0x3dde201c	0.10845968
21	0x3f01ab68	0.5065217
22	0x3dd08e94	0.101834446
23	0x3ebd3e33	0.36961517
24	0x3e534d44	0.20634943
25	0x3e4ab509	0.19795622
26	0x3eecc9e3	0.46247777
27	0xbd7cbc23	-0.06170286
28	0x3e854fbe	0.260374
29	0x3db69010	0.089141965
30	0x3ddf454c	0.10901889
31	0x3e8624b5	0.2619988

linear2.bias f4 [4]
0	0xbdd164dc	-0.102243155
1	0xbe80c460	-0.25149822
2	0x3fc16cb3	1.5111297
3	0x3f53f2f9	0.8279262

linear3.weight f4 [1, 4]
0	0xbe48ba7b	-0.19602387
1	0xbe5af533	-0.21382599
2	0x3f14dcc6	0.58149374
3	0x3ecc324f	0.39882132
