src/data/mlp_checkpoint.pth (torch, 2391 bytes, 5 tensors)

linear1.weight f4 [8, 3]
0	0x3e9c0e12	0.30479485
1	0x3ed16d71	0.4090381
2	0xbd3714f8	-0.04469773
3	0x3f1ce969	0.61293656
4	0x3d2092c9	0.039202485
5	0x3eea7a5e	0.45796484
6	0xbeaba3de	-0.33523458
7	0x3eaad1d4	0.3336321
8	0x3f25b797	0.6473326
9	0xbf01fcb4	-0.5077622
10	0x3ed439ca	0.4145034
11	0x3c9f787f	0.019466637
12	0x3ea60ac8	0.324301
13	0x3d3cd3df	0.046100494
14	0x3ed00ce3	0.40634832
15	0xbe4abd8d	-0.1979887
16	0x3ec20a70	0.37898588
17	0x3e489c51	0.1959088
18	0xbe89ffdb	-0.26953015
19	0x3e16b294	0.1471656
20	0xbe8831fe	-0.2660064
21	0xbd674fa3	-0.056472432
22	0xbe1f3b3f	-0.15549944
23	0x3f20d2ab	0.62821454

linear1.bias f4 [8]
0	0xbf287a80	-0.6581192
1	0xbe736e62	-0.23772576
2	0xbeb545bf	-0.35404775
3	0xbee35ca0	-0.44406605
4	0xbe1ac5bf	-0.15114497
5	0xbf4a0d14	-0.78926206
6	0x3f057b24	0.5214102
7	0xbf0f50ca	-0.5598265

linear2.weight f4 [4, 8]
0	0x3d8d3890	0.06895554
1	0xbde28919	-0.110613056
2	0xbe510271	-0.20411088
3	0x3e2fdc3c	0.17173856
4	0xbddd7ce3	-0.10814836
5	0x3d7fec8f	0.06248146
6	0x3d1e4fd0	0.038650334
7	0xbe932e7f	-0.2874641
8	0xbd2f9637	-0.042867865
9	0xbe31ab05	-0.17350395
10	0xbd166401	-0.036716465
11	0x3e89171e	0.2677545
12	0x3ce16adc	0.027516775
13	0xbe6b8907	-0.2300149
14	0x3e50fdfe	0.2040939
15	0xbe080693	-0.13283758
16	0x3e3a9fec	0.18225068
17	0x3d8da053	0.06915345
18	0x3d906c4b	0.07051905
19	0x3e6a9b82	0.22910884
20	0x3dbe4baa	0.092917755
21	0x3f01384c	0.5047653
22	0x3dd08e94	0.101834446
23	0x3ec56e3c	0.38560665
24	0x3e3a4758	0.18191278
25	0x3e40a05c	0.18811172
26	0x3eec77e7	0.46185228
27	0xbd8fdf91	-0.07025064
28	0x3e824e11	0.25450185
29	0x3ddd223c	0.10797545
30	0x3ddf454c	0.10901889
31	0x3e79647e	0.24354741

linear2.bias f4 [4]
0	0xbded3023	-0.11581447
1	0xbe83f329	-0.25771454
2	0x3fcc23dc	1.5948443
3	0x3f5e1c8a	0.867623

linear3.weight f4 [1, 4]
0	0xbe49d2e3	-0.19709353
1	0xbe5abde2	-0.21361497
2	0x3f1824de	0.59431255
3	0x3ec8a447	0.39187834
