src/data/mlp_checkpoint.pth (torch, 2327 bytes, 5 tensors)

linear1.weight f4 [8, 3]
00000000: 6f20 a33e cdc1 d13e 10e1 3bbd 3f8d 203f
00000010: 87b8 223d aebc e73e 1a6a acbe 2d58 a93e
00000020: c059 223f e9c5 02bf a329 d23e afe6 6a3c
00000030: 0297 b23e 764b 723d f019 d43e f81d 44be
00000040: b3de c23e c5f9 463e dbff 89be 94b2 163e
00000050: fe31 88be c6e4 46bd 0f33 1ebe b8be 1e3f
0.31860682 0.4096817 -0.045868933 0.62715524 0.03972676 0.4526114 -0.336747 0.33075085
0.634182 -0.51083237 0.4104739 0.014337226 0.34880835 0.059153996 0.4142604 -0.19152057
0.3806053 0.19431217 -0.26953015 0.1471656 -0.2660064 -0.04855802 -0.15449165 0.62009764

linear1.bias f4 [8]
00000000: 893f 1abf dbca 41be b3da 8bbe 3193 e3be
00000010: a23a a7bd 0c8b 3abf 247b 053f c22e 04bf
-0.60253197 -0.1892504 -0.27315292 -0.44448236 -0.0816548 -0.7286842 0.5214102 -0.51633847

linear2.weight f4 [4, 8]
00000000: 4466 933d e640 d6bd 3ff7 4ebe d95e 2d3e
00000010: f57e d4bd 32c5 9d3d d04f 1e3d 488f 91be
00000020: 7f0b 33bd a89d 30be cc9d 02bd 8074 873e
00000030: 583c 153d 8c67 6abe fefd 503e a3f4 0dbe
00000040: ea0d 393e 8acb 843d 5b6b 1f3d 079d 723e
00000050: 1a20 de3d 69ab 013f 948e d03d 2b3e bd3e
00000060: 484d 533e 07b5 4a3e e9c9 ec3e d2bb 7cbd
00000070: bd4f 853e 1190 b63d 4c45 df3d ae24 863e
0.0719724 -0.10461597 -0.20211504 0.16930713 -0.10375778 0.07703628 0.038650334 -0.28429627
-0.043712135 -0.17247641 -0.031888768 0.2645607 0.0364345 -0.22891062 0.2040939 -0.13862853
0.18071714 0.064841345 0.03892074 0.23692714 0.10845967 0.50652176 0.101834446 0.36961493
0.20634949 0.19795619 0.46247795 -0.061702557 0.26037398 0.08914197 0.10901889 0.2619986

linear2.bias f4 [4]
00000000: da64 d1bd 5fc4 80be b46c c13f f4f2 533f
-0.10224314 -0.2514982 1.5111299 0.8279259

linear3.weight f4 [1, 4]
00000000: 7dba 48be 33f5 5abe c6dc 143f 4f32 cc3e
-0.1960239 -0.21382599 0.58149374 0.39882132
