src/data/mlp_checkpoint_2.pth (torch, 2839 bytes, 6 tensors)

linear1.weight f4 [16, 3]
000000 0e a5 ac 3e 24 81 da 3e 37 b7 d2 bd de 8a 02 3f
       0.33719677 0.4267665 -0.10288852 0.50993145
000010 d2 70 89 bd 95 c9 8a 3e f8 f8 e4 be f8 86 6d 3e
       -0.06710972 0.2710692 -0.44721198 0.23196018
000020 b0 b4 fc 3e 1b ca 03 bf 65 8e ce 3e f0 c8 a6 3b
       0.49356604 -0.51480263 0.40343013 0.0050898716
000030 12 bb 7f 3e 0e 06 d5 bc 67 30 88 3e a3 ed c6 bd
       0.24973705 -0.026003864 0.26599428 -0.09713294
000040 8a 94 f6 3e 6b 6d 56 3e db ff 89 be 94 b2 16 3e
       0.481602 0.20940177 -0.26953015 0.1471656
000050 fe 31 88 be d0 c5 10 be e8 e1 9c be a1 5f 9a 3e
       -0.2660064 -0.1413796 -0.30641103 0.30151084
000060 28 57 e9 be b5 46 88 be 1c f1 26 be f7 bc b1 be
       -0.45574307 -0.26616445 -0.16302913 -0.3471448
000070 20 33 5f 3d 0a fb 11 bf 04 8c c9 3e 41 08 0d bf
       0.054492116 -0.5702368 0.39364636 -0.5509072
000080 b7 5e e8 3e bd 25 ce 3d 83 c7 e4 bd fe df 08 3f
       0.45384762 0.10065792 -0.11170866 0.53466785
000090 0f ac e6 bc 9d bf c8 3e 99 8b 6f 3d 62 73 3a be
       -0.028158216 0.3920869 0.05848274 -0.18208078
0000a0 fc d8 1e 3e b6 52 20 be b9 2a 1c 3e 46 1a ee 3e
       0.1551246 -0.15656552 0.15250672 0.4650442
0000b0 2e 31 b1 3e a0 89 52 be d2 f6 d9 3e a4 9c 8a 3e
       0.34607834 -0.20560312 0.4257112 0.27072632

linear1.bias f4 [16]
000000 20 68 90 3e fd 3d 33 be 0d 67 19 bf dc 30 af be
       0.2820444 -0.17504115 -0.5992287 -0.34216964
000010 0a 47 f8 be 62 dd 13 3f 3c 49 2a 3e e3 81 18 3e
       -0.48491699 0.5775968 0.16629499 0.14893298
000020 c8 f9 3a 3e c0 8d 24 bc 6d 98 e9 3e f4 b7 6c be
       0.18259346 -0.010043561 0.45624104 -0.23117048
000030 bf 0a ce 3b db c2 c9 be 64 f4 29 3e 50 cb 0c bd
       0.006287902 -0.39406475 0.16597134 -0.03437358

linear2.weight f4 [8, 16]
000000 3f 74 e0 bb f6 df e2 bd 32 fb 07 3e 05 7c 2f be
       -0.006849795 -0.110778734 0.13279417 -0.17137153
000010 e4 62 44 be a0 15 31 be e2 41 66 3e 65 2b 7e 3d
       -0.19178349 -0.17293406 0.2248607 0.062053103
000020 10 56 76 3e 4e 45 53 be 7a ae 99 be 4d 36 7e be
       0.24056268 -0.20631906 -0.30015928 -0.24825402
000030 7c b4 51 be 6c 61 cf 3d 87 60 41 b9 8f 96 ab 3d
       -0.20479006 0.101260036 -0.00018441874 0.08378326
000040 c1 74 02 bd 8b 72 ea 3d 94 73 ea 3e 0f 5e 60 3e
       -0.031849626 0.114476286 0.45791304 0.2191088
000050 c8 49 a0 3e ef ba fc 3d 9a 71 12 3e 59 8b ec bd
       0.3130629 0.12340342 0.14301148 -0.11550016
000060 ba 30 01 be c4 18 9c 3d 25 60 aa 3e b9 f7 75 3e
       -0.12616244 0.07621911 0.33276477 0.2402028
000070 7b 77 da 3e fa 07 2e 3e 48 45 ec bd 2a c2 2d 3e
       0.4266928 0.1699523 -0.11536652 0.16968599
000080 71 7a 61 3e d8 c9 a6 3d 42 23 e5 3d a4 4a 1d be
       0.22019364 0.081439674 0.111883655 -0.15360504
000090 d0 01 c0 bc 03 97 36 3e 38 29 07 bd 79 8c fc bd
       -0.023438364 0.17831044 -0.032998294 -0.123314805
0000a0 40 28 c0 3b 6e de 2e be e7 fe 35 bd 14 e4 4e 3d
       0.005864173 -0.17077038 -0.044432547 0.05051048
0000b0 7c 66 2e bd 44 01 23 be 7d 3c 7f 3e df b0 61 3e
       -0.042578205 -0.15918452 0.24925418 0.22040127
0000c0 ad 9f 7c 3e 87 d6 97 bc f1 b2 58 3e 78 0c 0d 3e
       0.24670286 -0.018534912 0.2116201 0.13774288
0000d0 47 37 89 3e d3 de 0c bc 64 9b dc bd 58 42 19 be
       0.26799986 -0.008598047 -0.10771826 -0.14966714
0000e0 00 9e 35 3a 50 84 be bd ba 94 72 3e 46 e6 d5 3d
       0.0006928146 -0.0930258 0.23689547 0.10444312
0000f0 d0 a1 af 3d d2 59 15 be 20 0f bc 3d a1 34 15 3d
       0.08575785 -0.14585045 0.09182572 0.036427144
000100 eb 2e 80 3d b6 83 1d be 07 69 e3 3d 69 b5 16 3d
       0.06258949 -0.15382275 0.11104017 0.0367941
000110 ef d8 8e be 48 82 d9 3c c8 df 8c bd fe 50 08 be
       -0.27899882 0.02655138 -0.068786204 -0.13312146
000120 80 7f 54 be 50 81 7e be 40 8a cf bc 44 17 41 be
       -0.20751762 -0.24854016 -0.025334477 -0.18856531
000130 fc 12 1f bc 00 17 52 be 5d a3 3d 3d d5 01 9c be
       -0.009709116 -0.20516586 0.046298373 -0.30470148
000140 85 d9 f9 bd a5 e8 6e bd 7d e0 34 3d b6 37 28 3e
       -0.12199692 -0.058327336 0.0441594 0.16427502
000150 64 58 07 3e 6c 48 81 be 88 da 80 3d f2 6e 14 be
       0.13217312 -0.25250566 0.062916815 -0.14495447
000160 00 6e e0 bc 0c 9d 3f be fa f9 0c 3e 1d 59 84 be
       -0.027396202 -0.18712252 0.13767233 -0.25849238
000170 a7 f8 3d 3d e4 ef b3 3d 6d 2f b8 bc e5 8a 70 be
       0.04637971 0.0878599 -0.022483552 -0.23490484
000180 c8 e1 dc 3d 54 c2 43 bd 53 04 1c bd b1 4b 80 be
       0.10785252 -0.047792748 -0.03809006 -0.25057748
000190 5d 26 b7 3c a3 37 03 be 44 8f ea bd ba fe 3c 3e
       0.02235716 -0.12814192 -0.11453107 0.18456545
0001a0 b0 4c 64 3d 86 a3 0d be 18 1c 44 be 6f d3 01 be
       0.055737197 -0.1383191 -0.19151342 -0.12678312
0001b0 07 3f 65 3d 54 d5 82 bd 8e 6f 31 be c7 0e 4a be
       0.05596831 -0.06388345 -0.17327711 -0.197322
0001c0 83 8d 9e bd fe fe 2e 3e 0c bc bb 3e b5 0b 57 3b
       -0.07741835 0.1708946 0.36666906 0.0032813374
0001d0 93 eb a0 3d 2b fb 13 3e 68 ae 39 3d 8a 7c d0 bc
       0.07857432 0.14451282 0.045332342 -0.02545001
0001e0 00 9e 05 3e 08 88 06 3e ed 6c 6b 3e c8 08 27 3e
       0.13048553 0.1313783 0.2299077 0.16311944
0001f0 1a d6 13 3e d0 18 db 3c f0 02 bf 3c 1b 5a f4 3d
       0.14437142 0.02674523 0.02331683 0.11931249

linear2.bias f4 [8]
000000 d0 4f 62 3d d1 bf 89 3f 8d 10 dc 3e c1 7b 26 3f
       0.055251896 1.0761663 0.42981377 0.65032583
000010 fc de 13 be c9 46 08 be 14 9f 53 bd 23 4e 56 3f
       -0.1444053 -0.13308252 -0.05166538 0.8371298

linear3.weight f4 [2, 8]
000000 e4 a1 76 be e9 ed 94 3e e3 6b a3 3e 6e 87 b3 3e
       -0.24085194 0.2908776 0.3191825 0.35064262
000010 72 99 bd 3d 62 c1 1f be d3 58 04 be c6 7a af 3e
       0.09257783 -0.15601113 -0.12924509 0.34273356
000020 93 9f 05 bd 57 b7 88 3e 83 f3 95 3e cd 14 b4 3e
       -0.032622885 0.26702377 0.29287347 0.3517212
000030 37 f9 55 be 2f e4 24 be 70 67 a8 3c b6 fc c8 3e
       -0.20895849 -0.1610267 0.020557135 0.39255303

linear3.bias f4 [2]
000000 bf 18 87 3f df 37 6b 3f
       1.0554427 0.9188213
