src/data/rnn_checkpoint.pth (torch, 1827 bytes, 5 tensors)

rnn.weight_ih_l0 f4 [6, 1]
00000000: 9837 223f 3bce 3b3f 9cdf c3bd 92d3 313f
00000010: fb19 733e 58be 9bbe
0.6336608 0.7336156 -0.095641345 0.69463456 0.2374038 -0.30418658

rnn.weight_hh_l0 f4 [6, 6]
00000000: bd98 09be 0406 ad3e 4a43 b83e 6003 a1be
00000010: a3bd c13e 4113 ba3d 7e3b c63e ce0d 3d3e
00000020: b493 493e d3f8 9c3e e86c b63e 0b31 8a3d
00000030: 2229 43be 581e d53d f69b 40be 181a 44bd
00000040: 00cb 29be eea8 8a3e 5cca aebe 2a64 70be
00000050: 6817 ecbd 479d 75be 4483 d7bd 627e e1be
00000060: 0728 e13e 7ccb 7bbe 205f a13e a845 e33e
00000070: 71b8 d0bd 0e42 8b3e 8dba f8bd b338 fe3d
00000080: 80cd 363d ec5f 603e 54f4 eebd 6d74 24be
-0.13437171 0.33793652 0.35988837 -0.31447887 0.37839994 0.09085704 0.38717264 0.18462297
0.1968525 0.30658588 0.35629964 0.067476355 -0.1905866 0.10406178 -0.18809494 -0.047876447
-0.16581345 0.27082008 -0.34138763 -0.2347571 -0.11527902 -0.23985778 -0.10523084 -0.44041735
0.4397585 -0.24589342 0.31517887 0.4438908 -0.101914294 0.27198833 -0.12144957 0.12413158
0.044629574 0.21911591 -0.11667696 -0.16060038

rnn.bias_ih_l0 f4 [6]
00000000: 4b67 d93d f8ea 893e d8a7 713e 9646 d3bc
00000010: 2ae4 413e 7f93 413c
0.10615405 0.2693708 0.23599184 -0.025790494 0.18934694 0.011814951

rnn.bias_hh_l0 f4 [6]
00000000: 0710 113e 731a b0be ede9 cebe a55d a5bb
00000010: bf0a b8be 3b29 8c3e
0.1416627 -0.3439518 -0.40412846 -0.0050465637 -0.359457 0.27375206

fc.weight f4 [1, 6]
00000000: f20b 893e a465 b93e 3836 043e c0b6 e8bb
00000010: afc8 ee3e 210c 90be
0.26766926 0.36210358 0.12911308 -0.0071018636 0.46637484 -0.28134254
