src/data/rnn_checkpoint.pth (torch, 2263 bytes, 5 tensors)

rnn.weight_ih_l0 f4 [6, 1]
00000000: ea39 193f 3a35 2f3f 9cdf c3bd 3500 303f
00000010: dcb0 443e 241d f7bd
0.59853995 0.6844059 -0.095641345 0.68750316 0.19208091 -0.12066105

rnn.weight_hh_l0 f4 [6, 6]
00000000: 3491 ecbd 7b04 bb3e 4a43 b83e 03e6 a0be
00000010: e585 ce3e 27f7 c33d 325e cf3e 13e0 573e
00000020: b493 493e dddf 9f3e 74dd be3e 8f5f 9f3d
00000030: 2229 43be 581e d53d f69b 40be 181a 44bd
00000040: 00cb 29be eea8 8a3e db57 b1be 7f99 5dbe
00000050: 6817 ecbd 9231 89be 56a4 a33a 844e dabe
00000060: bdff e73e 17b1 65be 205f a13e 6be2 e53e
00000070: 2c89 a7bd 945e 8d3e 08f6 8fbd 1553 3c3e
00000080: 80cd 363d 8662 523e fff3 19bd 589a 3ebe
-0.11551133 0.36526856 0.35988837 -0.31425485 0.40336528 0.09568625 0.40501553 0.21081571
0.1968525 0.31225482 0.3727833 0.07781898 -0.1905866 0.10406178 -0.18809494 -0.047876447
-0.16581345 0.27082008 -0.3463734 -0.21640585 -0.11527902 -0.26795632 0.0012484889 -0.42638028
0.453123 -0.22430836 0.31517887 0.44899306 -0.0818046 0.2761122 -0.070293486 0.18391068
0.044629574 0.20545396 -0.03758621 -0.18613565

rnn.bias_ih_l0 f4 [6]
00000000: f552 d73d fb4b 893e d8a7 713e 7e92 cfbc
00000010: 038b 3d3e 6dc2 013c
0.1051387 0.2681578 0.23599184 -0.025338408 0.1851006 0.00791989

rnn.bias_hh_l0 f4 [6]
00000000: c305 103e 6ab9 b0be ede9 cebe 2a8d 96bb
00000010: 3937 babe b62a 8a3e
0.14064698 -0.3451646 -0.40412846 -0.004594465 -0.36370257 0.2698571

fc.weight f4 [1, 6]
00000000: 566b 7b3e 6fa7 ad3e 3836 043e c0b6 e8bb
00000010: 6051 df3e b47d 80be
0.24552664 0.33916804 0.12911308 -0.0071018636 0.43616772 -0.25095904
