src/data/rnn_checkpoint.pth (torch, 1827 bytes, 5 tensors)

rnn.weight_ih_l0 f4 [6, 1]
0.59850967 0.68442535 -0.095641345 0.6871963 0.19207898 -0.120882764
00000000: ee37 193f 8036 2f3f 9cdf c3bd 19ec 2f3f
00000010: 5ab0 443e 6291 f7bd

rnn.weight_hh_l0 f4 [6, 6]
-0.11553874 0.3652434 0.35988837 -0.31402165 0.40335253 0.095676206 0.40497425 0.21078025
0.1968525 0.31201923 0.37270898 0.07780354 -0.1905866 0.10406178 -0.18809494 -0.047876447
-0.16581345 0.27082008 -0.34625882 -0.21616296 -0.11527902 -0.26792988 0.0041880915 -0.4262647
0.45309985 -0.22432636 0.31517887 0.4489262 -0.08182232 0.27611274 -0.070254035 0.1839052
0.044629574 0.20578697 -0.037376158 -0.18612719
00000000: 939f ecbd 2f01 bb3e 4a43 b83e 72c7 a0be
00000010: 3984 ce3e e3f1 c33d c958 cf3e c7d6 573e
00000020: b493 493e fcc0 9f3e b6d3 be3e 7657 9f3d
00000030: 2229 43be 581e d53d f69b 40be 181a 44bd
00000040: 00cb 29be eea8 8a3e d648 b1be d359 5dbe
00000050: 6817 ecbd 1b2e 89be 423c 893b 5e3f dabe
00000060: b4fc e73e cfb5 65be 205f a13e a8d9 e53e
00000070: 7692 a7bd a65e 8d3e 59e1 8fbd a551 3c3e
00000080: 80cd 363d d2b9 523e be17 19bd 2098 3ebe

rnn.bias_ih_l0 f4 [6]
0.10514696 0.26815605 0.23599184 -0.02536661 0.18510798 0.007952148
00000000: 4a57 d73d c04b 893e d8a7 713e a3cd cfbc
00000010: f28c 3d3e ba49 023c

rnn.bias_hh_l0 f4 [6]
0.14065565 -0.34516662 -0.40412846 -0.0046227076 -0.36369544 0.26989025
00000000: 0908 103e aeb9 b0be ede9 cebe 157a 97bb
00000010: 4a36 babe 0e2f 8a3e

fc.weight f4 [1, 6]
0.2455528 0.33919105 0.12911308 -0.0071018636 0.43615964 -0.2509631
00000000: 3172 7b3e 73aa ad3e 3836 043e c0b6 e8bb
00000010: 5150 df3e 3c7e 80be
