src/data/rnn_checkpoint.pth (torch, 2475 bytes, 5 tensors)

rnn.weight_ih_l0 f4 [6, 1]
000000 7b 46 19 3f ae 28 2f 3f 9c df c3 bd 8a 66 30 3f
       0.5987317 0.6842145 -0.095641345 0.6890646
000010 d3 3e 45 3e 36 f0 f8 bd
       0.19262247 -0.121551916

rnn.weight_hh_l0 f4 [6, 6]
000000 ec 3e ed bd 13 ad ba 3e 4a 43 b8 3e bb 50 9d be
       -0.11584267 0.3646017 0.35988837 -0.30725655
000010 ed 95 cf 3e 9b e7 c2 3d 45 71 cf 3e da 55 57 3e
       0.40544072 0.095168315 0.40516105 0.21028844
000020 b4 93 49 3e 91 f4 99 3e 8f ad c0 3e 22 c6 9f 3d
       0.1968525 0.30069402 0.37632415 0.07801463
000030 22 29 43 be 58 1e d5 3d f6 9b 40 be 18 1a 44 bd
       -0.1905866 0.10406178 -0.18809494 -0.047876447
000040 00 cb 29 be ee a8 8a 3e 65 35 b3 be 4c 7f 5f be
       -0.16581345 0.27082008 -0.35001674 -0.21825904
000050 68 17 ec bd 41 e4 8a be 06 ab b8 3b 32 94 db be
       -0.11527902 -0.2712727 0.005635622 -0.42886502
000060 e6 c6 e7 3e 21 44 66 be 20 5f a1 3e 0a 14 e0 3e
       0.45268935 -0.22486927 0.31517887 0.4376529
000070 5d 90 a3 bd 5b fc 8c 3e ad 93 8e bd fd 83 3d 3e
       -0.079865195 0.27536282 -0.06961761 0.18507381
000080 80 cd 36 3d 4c eb 51 3e 96 a2 11 bd 7e 31 3e be
       0.044629574 0.20499915 -0.035555445 -0.18573567

rnn.bias_ih_l0 f4 [6]
000000 05 7b d7 3d 0a fc 89 3e d8 a7 71 3e 53 7f cc bc
       0.10521511 0.26950103 0.23599184 -0.024963057
000010 e2 de 3c 3e 33 ce 11 3c
       0.18444398 0.008899259

rnn.bias_hh_l0 f4 [6]
000000 d2 19 10 3e 5c 09 b0 be ed e9 ce be 82 40 8a bb
       0.1407235 -0.3438214 -0.40412846 -0.0042191157
000010 5a 8d ba be 02 ab 8a 3e
       -0.36435968 0.27083594

fc.weight f4 [1, 6]
000000 21 a0 7b 3e c0 a3 ad 3e 38 36 04 3e c0 b6 e8 bb
       0.24572803 0.33913994 0.12911308 -0.0071018636
000010 5e 48 e0 3e a2 b8 80 be
       0.43805212 -0.25140864
